best_model.pth (torch, 446967 bytes, 7 tensors)

fc1.weight f4 [128, 784]
0.021371843 -0.026520414 0.0077070426 -0.004725448 0.008048165 0.014134148 -0.0030239949 0.033170365
-0.029363995 0.0070249825 -0.028200235 0.02818995 -0.03147958 -0.03471316 0.015100442 0.0042734533
-0.00344514 0.032727145 -0.021495076 -0.006096674 0.026293509 -0.03488712 -0.01595636 -0.017083317
0.030817494 -0.030404411 0.006258735 0.03284459 0.011649128 0.00241352 0.0019938692 0.028534554
-0.01548338 0.0002243221 0.027935404 0.02099962 -0.02382947 0.018951502 0.011505893 -0.02342085
0.014099071 -0.022022326 0.0033012247 0.019135531 0.02543097 0.030482119 0.028497718 -0.029195288
-0.0059555857 0.02689647 -0.0054751383 0.017972164 0.034399346 -0.03468652 -0.02729384 -0.032505937
-0.019903911 -0.019500507 -0.0091889035 -0.0033789363 -0.0025003469 -0.034745358 -0.031187765 0.012733226
0.013103826 -0.0056512216 0.020493269 0.004872317 -0.030850261 0.031478703 -0.009317129 -0.014204748
0.020385051 0.03234999 -0.01035375 0.017883075 0.023442756 0.0015525342 -0.013213997 0.005630936
-0.004455588 -0.0154429935 -0.021138094 -0.027155558 -0.026534712 0.030562999 0.032450963 0.019959796
0.007851797 -0.03059909 0.016735373 -0.010507526 0.020628456 -0.028857429 -0.03247869 0.004330512
0.0020264043 0.011676964 -0.012787595 -0.009088144 -0.010274452 -0.031365357 -0.00107091 -0.019325426
-0.03130931 -0.01657046 0.023531575 -0.005680191 -0.008707523 0.006287622 -0.017974842 0.012652372
-0.01323932 -0.010169204 -0.027267206 0.022255264 0.010232828 -0.027925799 -0.014909842 0.00066462497
-0.0022585934 -0.028666029 0.011524107 0.017352114 -0.004205398 -0.013309163 0.011742806 -0.006466025
0.019719314 0.020474058 -0.022406062 0.012329187 0.010687512 0.0061507644 -0.009186126 -0.031740956
0.016756518 -0.026032036 -0.019969698 -0.028973585 -0.02008497 0.0249483 -0.017936716 0.008629833
0.014082918 0.018254306 0.0074063055 -0.042019565 0.025759496 -0.041635703 -0.031837583 -0.028056804
-0.03746399 0.02114558 0.005176855 0.0040337234 -0.016146716 -0.009417799 0.015365592 -0.03871332
0.012197204 -0.020988015 -0.037790902 0.015047414 0.02291922 -0.007878849 0.035270944 0.023380298
-0.007856455 -0.0051544695 -0.018276284 -0.035330243 0.012358746 -0.02348403 0.03119062 0.012618442
0.007269332 -0.027811397 0.033427265 -0.0344785 0.019355182 -0.036638904 0.02232865 -0.0076929084
0.018898169 -0.0065207286 0.0033319648 0.03096213 -0.004238003 0.0003160154 -0.039531168 -0.01442992
0.00044482521 -0.03532463 -0.019369531 -0.020083765 0.028074479 0.0053735124 -0.012570424 -0.006092452
-0.037686244 -0.016475542 -0.028336244 0.02515723 -0.007342146 -0.01685883 0.028941453 -0.013251806
-0.0018400893 -0.01635141 0.020178663 -0.025742203 0.006355929 0.014430782 0.0067446423 0.028840614
0.0011873328 -0.011982141 -0.027277885 0.0074610533 -0.040055953 -0.015315095 -0.020566324 0.035019986
0.0132083725 0.03175751 -0.017463451 0.013993186 0.008850696 0.024738455 0.02872304 -0.034775026
0.023870936 -0.0025307846 -0.02386729 -0.008804919 -0.019257296 -0.03773454 0.026431203 0.0043850266
0.019423762 -0.008448781 -0.011247377 0.027509842 0.029766135 0.0042752316 0.0055835885 0.01918687
0.018149372 -0.024088653 0.013841864 0.035158392 -0.0068970583 -0.027337007 0.028519835 -0.03228467
00000000: 0114 af3c 5741 d9bc 5c8b fc3b eed7 9abb
00000010: 73dc 033c ea92 673c 372e 46bb a6dd 073d
00000020: c38c f0bc d331 e63b 2e04 e7bc 9cee e63c
00000030: bbf0 00bd 632f 0ebd d867 773c 5308 8c3b
00000040: dcc7 61bb e60c 063d 7116 b0bc 9cc6 c7bb
00000050: 7c65 d73c cce5 0ebd eab6 82bc 50f2 8bbc
00000060: f874 fc3c ac12 f9bc 1316 cd3b 0c88 063d
00000070: fcdb 3e3c 252c 1e3b 93ab 023b 4cc1 e93c
00000080: 01ae 7dbc 0138 6b39 cad8 e43c 6507 ac3c
00000090: 0536 c3bc 2e40 9b3c 3783 3c3c 15dd bfbc
000000a0: caff 663c 2a68 b4bc 5c59 583b 1ec2 9c3c
000000b0: 9c54 d03c a3b5 f93c 0c74 e93c f52a efbc
000000c0: 1327 c3bb fc55 dc3c ca68 b3bb 5c3a 933c
000000d0: 54e6 0c3d 7413 0ebd 5597 dfbc f224 05bd
000000e0: 870d a3bc 87bf 9fbc 0e8d 16bc 2571 5dbb
000000f0: dcdc 23bb 2651 0ebd 7c7d ffbc 059f 503c
00000100: 6eb1 563c e22d b9bb 80e1 a73c f5a7 9f3b
00000110: b0b9 fcbc d0ef 003d dfa6 18bc 08bb 68bc
00000120: 8dfe a63c 6c81 043d c6a2 29bc 877f 923c
00000130: 060b c03c 677e cb3a 857f 58bc b783 b83b
00000140: 2e00 92bb 9c04 7dbc cc29 adbc 5575 debc
00000150: 535f d9bc 415f fa3c 4deb 043d ba82 a33c
00000160: d3a4 003c f1aa fabc 9f18 893c c227 2cbc
00000170: 02fd a83c 6a66 ecbc 6008 05bd f8e6 8d3b
00000180: 6ccd 043b bd50 3f3c 1083 51bc 70e6 14bc
00000190: 2d56 28bc f678 00bd c75d 8cba 5b50 9ebc
000001a0: 313e 00bd c6be 87bc 4ac5 c03c e520 babb
000001b0: 00aa 0ebc 6508 ce3b fa3f 93bc e54b 4f3c
000001c0: bce9 58bc bc9c 26bc 7a5f dfbc ac50 b63c
000001d0: 97a7 273c a5c4 e4bc 6948 74bc 3a3a 2e3a
000001e0: e904 14bb 05d5 eabc 9ccf 3c3c 0526 8e3c
000001f0: 6fcd 89bb ad0e 5abc e664 403c f3e0 d3bb
00000200: 668a a13c 36b9 a73c eb8c b7bc 5c00 4a3c
00000210: ad1a 2f3c 5a8c c93b 6881 16bc ce02 02bd
00000220: f744 893c 2341 d5bc 7e97 a3bc 035a edbc
00000230: 3c89 a4bc 6160 cc3c 05f0 92bc 2564 0d3c
00000240: 0abc 663c 0e8a 953c 98b0 f23b b51c 2cbd
00000250: 9405 d33c 338a 2abd 2068 02bd 62d7 e5bc
00000260: d773 19bd 7f39 ad3c 9ba2 a93b 532d 843b
00000270: 1e46 84bc 1d4d 1abc f7bf 7b3c dc91 1ebd
00000280: c8d6 473c 0fef abbc a2ca 1abd 6e89 763c
00000290: 17c1 bb3c 4a16 01bc 4478 103d 0a88 bf3c
000002a0: 5cb8 00bc d3e6 a8bb 25b8 95bc 72b6 10bd
000002b0: 567c 4a3c 9561 c0bc 7983 ff3c 95bd 4e3c
000002c0: 9433 ee3b bad4 e3bc 07eb 083d 5439 0dbd
000002d0: c28e 9e3c ad12 16bd 93ea b63c cb14 fcbb
000002e0: 55d0 9a3c d6ab d5bb 185d 5a3b 4ba4 fd3c
000002f0: f2de 8abb deae a539 6feb 21bd 796b 6cbc
00000300: 6e37 e939 8fb0 10bd daac 9ebc b586 a4bc
00000310: 73fc e53c 4a14 b03b 2ef4 4dbc 31a3 c7bb
00000320: e45c 1abd b7f7 86bc 6921 e8bc 8916 ce3c
00000330: 6296 f0bb 871b 8abc a016 ed3c 1a1e 59bc
00000340: 272f f1ba 64f3 85bc b94d a53c 50e1 d2bc
00000350: 6645 d03b 166f 6c3c 2902 dd3b 2743 ec3c
00000360: 47a0 9b3a be50 44bc df75 dfbc da7b f43b
00000370: b611 24bd 2aec 7abc b57a a8bc 1e71 0f3d
00000380: ee67 583c 2a14 023d 830f 8fbc ad43 653c
00000390: 8202 113c 4da8 ca3c 954c eb3c 4270 0ebd
000003a0: fb8c c33c 85db 25bb 5685 c3bc 8242 10bc
000003b0: 7ac1 9dbc 888f 1abd 4086 d83c 45b0 8f3b
000003c0: 951e 9f3c c26c 0abc eb46 38bc 525c e13c
000003d0: 1cd8 f33c 3e17 8c3b 89f6 b63b c82d 9d3c
000003e0: fead 943c 9155 c5bc fcc8 623c 3f02 103d
000003f0: b800 e2bb dcf1 dfbc 6ea2 e93c ee3c 04bd

fc1.bias f4 [128]
-0.026634462 0.28813577 0.006627367 0.22815807 -0.026585922 -0.00943327 -0.02833944 0.25778958
0.40771013 -0.04751109 -0.11680417 -0.034454767 -0.16676277 -0.001974852 -0.26514626 -0.033051696
0.0031157373 0.33007377 0.4292839 -0.025167568 0.0112075545 0.0046403776 0.01370065 -0.041455336
0.38226497 0.030678626 0.009678251 0.18936168 -0.014597154 -0.024848852 0.15701203 -0.021985747
-0.024048617 -0.03833095 -0.047757477 0.022334127 -0.025423963 0.2353266 0.24469915 -0.03556814
0.016000124 -0.034522057 0.15744136 -0.00050394755 0.0037045968 0.3154962 0.1958195 0.007700697
-0.019191228 0.11675736 -0.09028211 0.44463468 0.44804332 -0.04319154 0.31016138 0.2827131
0.41497803 0.19845936 0.30603084 0.19093059 0.27138925 -0.03505443 0.18391219 0.25227562
0.20903417 -0.0053847115 0.20348963 0.020980468 0.09691174 0.25331095 0.2583569 -0.1985696
0.10560086 0.15850367 -0.021225054 0.022207743 0.12783934 0.118884616 -0.029318912 0.41924393
0.019020248 0.021451758 -0.0074121007 0.35896534 0.13676573 0.27923754 0.22713521 -0.04446655
0.13013154 0.41964015 -0.007334837 0.086509325 -0.009063923 -0.012763332 0.0011467068 -0.0111948345
0.29149175 -0.0014466601 0.019438911 0.008206694 -0.004585381 0.33920935 -0.04500039 0.30756667
-0.011124472 -0.03982923 -0.00540503 0.08428987 -0.03877775 0.28242746 0.20312767 -0.02841452
0.35348207 0.18110006 0.35660616 -0.009861728 0.19247387 0.05436386 -0.014953841 -0.15118045
0.40946022 0.22840986 0.2357593 -0.03411432 0.24583718 0.013934311 0.2785682 -0.032464195
00000000: 8430 dabc 8886 933e 622a d93b 45a2 693e
00000010: b8ca d9bc 018e 1abc 1d28 e8bc fffc 833e
00000020: 62bf d03e fd9a 42bd 0637 efbd 7120 0dbd
00000030: dcc3 2abe 856c 01bb 40c1 87be 3761 07bd
00000040: 6631 4c3b 6eff a83e 19cb db3e 372c cebc
00000050: e49f 373c 4f0e 983b b178 603c 12cd 29bd
00000060: 3cb8 c33e be51 fb3c 8791 1e3c 07e8 413e
00000070: e728 6fbc d28f cbbc c3c7 203e 741b b4bc
00000080: 9b01 c5bc ea00 1dbd 589d 43bd 0ff6 b63c
00000090: ea45 d0bc 75f9 703e 6a92 7a3e e6af 11bd
000000a0: b112 833c 0067 0dbd 4f38 213e 591b 04ba
000000b0: d2c8 723b b888 a13e e884 483e 2156 fc3b
000000c0: ec36 9dbc 7c1e ef3d d4e5 b8bd 28a7 e33e
000000d0: ef65 e53e 9de9 30bd 79cd 9e3e c5bf 903e
000000e0: 0078 d43e ee38 4b3e 13b0 9c3e 4f83 433e
000000f0: 88f3 8a3e 3c95 0fbd 7a53 3c3e 452a 813e
00000100: 0e0d 563e 3c72 b0bb 965f 503e 3bdf ab3c
00000110: aa79 c63d f9b1 813e 5b47 843e d455 4bbe
00000120: 4445 d83d c94e 223e 2ae0 adbc 03ed b53c
00000130: 51e8 023e c779 f33d 372e f0bc 24a7 d63e
00000140: 5ad0 9b3c 99bb af3c 35e1 f2bb 4eca b73e
00000150: 510c 0c3e 39f8 8e3e 2296 683e 8f22 36bd
00000160: 3441 053e 13db d63e 1359 f0bb cd2b b13d
00000170: d980 14bc 4b1d 51bc 184d 963a 8a6a 37bc
00000180: 683e 953e dc9d bdba 5a3e 9f3c 5f75 063c
00000190: f740 96bb d9ac ad3e 5452 38bd 6179 9d3e
000001a0: 6b43 36bc fa23 23bd ae1c b1bb 2ba0 ac3d
000001b0: 6bd5 1ebd 559a 903e b300 503e 91c5 e8bc
000001c0: 9afb b43e 4b72 393e 1595 b63e 1693 21bc
000001d0: df17 453e a4ac 5e3d f500 75bc 0ccf 1abe
000001e0: c5a4 d13e 46e4 693e e36a 713e 75bb 0bbd
000001f0: bebc 7b3e bd4c 643c 7ea0 8e3e 2df9 04bd

fc2.weight f4 [64, 128]
-0.08192519 0.047857437 0.028439958 0.042666707 -0.08662319 -0.03293581 0.06705157 -0.07709977
-0.04534624 -0.09085788 0.045322318 0.030272506 0.07115565 0.03484109 -0.06397763 -0.06406076
0.06202041 0.021452213 0.021393131 0.064449124 -0.06357075 0.07233772 0.0072342926 -0.042148918
-0.046501406 -0.05960438 -0.0047946456 -0.003111165 -0.06525886 0.061634827 -0.056703378 0.042107664
-0.08316145 0.026933601 0.018621802 -0.073532596 0.022789516 0.0187167 0.047528945 0.011505315
-0.088455714 -0.031596795 -0.07702661 -0.09600357 -0.054220427 -0.11996814 -0.05280749 -0.0070042727
-0.053314477 -0.026863428 -0.051863644 -0.046718 -0.009283294 0.07568529 -0.01564829 -0.07616836
-0.086378254 -0.050597277 -0.021301817 0.051110514 -0.09965345 0.05390641 -0.0044388864 -0.056983814
-0.073099405 0.07489906 -0.08344413 -0.01504467 -0.07209793 -0.02266543 0.039528277 -0.085700534
-0.0068251644 0.037512276 0.046327204 0.045234367 -0.05855126 0.07138969 -0.07157703 -0.022933416
-0.08463173 0.07833847 -0.07824234 0.03812754 -0.09918099 -0.048410166 0.0074643088 0.025267879
-0.05294617 -0.10092846 -0.07415734 -0.039773736 0.07166506 -0.04845788 -0.005036293 -0.060928375
-0.028636875 0.039853167 -0.03214808 -0.09473014 0.055510774 -0.01601672 0.066541985 0.009690091
0.044556282 -0.0004469108 -0.025120217 0.023545474 -0.07607523 -0.054679543 -0.0496184 0.0022005828
0.04446963 0.025697803 -0.014596982 0.05129226 -0.102392845 0.07595294 -0.006143694 -0.008770494
-0.058390707 0.07877275 -0.034132283 0.04229771 0.01721953 -0.049178414 -0.03385142 -0.096478716
0.022550812 0.0061623044 -0.053646103 0.022029703 0.011455257 -0.069268346 -0.05575098 -0.039176244
-0.04234788 0.032930784 -0.0496389 -0.021063881 -0.041074555 -0.012148751 -0.052102912 -0.06043079
-0.06798055 -0.06474281 -0.009702017 -0.053972133 -0.0085149845 0.05659874 0.022456992 0.036120854
-0.0638353 -0.08733145 -0.0052732467 0.03422716 -0.023341637 -0.0020086768 0.015403244 0.03128773
-0.034028873 0.00050240854 -0.08993417 0.00069255783 -0.04051591 -0.06610791 -0.07191606 -0.027496876
0.06456508 -0.007010946 0.009777187 -0.02254286 -0.005162822 -0.08282232 -0.061064277 0.060035408
-0.02066365 -0.08785755 -0.023361422 0.05049403 -0.03328404 0.025223406 -0.015623524 -0.009889228
-0.10575639 -0.042251837 0.043107033 0.05575348 0.04392904 -0.017976498 -0.012389714 0.0053950823
-0.05240233 -0.06443484 -0.0556602 0.032295942 -0.05263666 -0.040032998 -0.06738544 -0.0913921
-0.05021194 -0.032821108 0.08505184 0.06973322 -0.061637167 0.02397869 0.05281162 -0.06406355
0.07815871 0.09006847 0.024996037 -0.024823632 -0.05789501 -0.09171861 0.044975378 0.054554008
-0.005658463 -0.01934992 0.021932911 -0.038617488 -0.06376352 -0.08314955 0.020700842 0.032916557
-0.08896122 -0.039840743 0.03275797 0.023473524 0.05744556 -0.0475258 0.05146093 0.047739197
0.010086068 0.048093274 0.03453768 0.051844273 -0.02968813 -0.044853825 -0.07548683 0.06647431
-0.06757851 0.029246725 -0.089044474 0.000957036 -0.08829733 0.06454246 0.01980423 -0.09868119
-0.0022356107 -0.00040715057 -0.07734097 0.030914746 0.050082188 0.05385235 -0.012709959 0.01819364
00000000: 65c8 a7bd 2906 443d eafa e83c 49c3 2e3d
00000010: 8067 b1bd b3e7 06bd 5552 893d 7ce6 9dbd
00000020: fbbc 39bd b213 babd e5a3 393d 0cfe f73c
00000030: 0eba 913d 88b5 0e3d b406 83bd 4a32 83bd
00000040: 1d09 7e3d 8dbc af3c a640 af3c e7fd 833d
00000050: 6231 82bd cc25 943d a50d ed3b 58a4 2cbd
00000060: 4278 3ebd b923 74bd 671c 9dbb b0e4 4bbb
00000070: 70a6 85bd cd74 7c3d cd41 68bd 1679 2c3d
00000080: 8d50 aabd dba3 dc3c c08c 983c 4298 96bd
00000090: 14b1 ba3c c453 993c b6ad 423d ca80 3c3c
000000a0: 4528 b5bd a46b 01bd 21c0 9dbd 859d c4bd
000000b0: 3d16 5ebd dbb1 f5bd ab4c 58bd 1984 e5bb
000000c0: 4860 5abd b110 dcbc f96e 54bd 605b 3fbd
000000d0: f518 18bc e400 9b3d d830 80bc 28fe 9bbd
000000e0: 15e7 b0bd 173f 4fbd 2681 aebc 4259 513d
000000f0: 1c17 ccbd f8cc 5c3d 1474 91bb dc67 69bd
00000100: 24b5 95bd ae64 993d c2e4 aabd eb7d 76bc
00000110: 14a8 93bd daac b9bc 67e8 213d c383 afbd
00000120: a1a5 dfbb 79a6 193d 98c1 3d3d ac47 393d
00000130: 72d3 6fbd c234 923d fa96 92bd dcde bbbc
00000140: 6753 adbd eb6f a03d 853d a0bd a02b 1c3d
00000150: 671f cbbd bd49 46bd 2997 f43b 95fe ce3c
00000160: 15de 58bd 95b3 cebd cedf 97bd c9e9 22bd
00000170: 22c5 923d c57b 46bd 7d07 a5bb 0890 79bd
00000180: e197 eabc 133d 233d b5ad 03bd e001 c2bd
00000190: 445f 633d 7f35 83bc 2a47 883d 30c3 1e3c
000001a0: a680 363d 5a4f eab9 eac8 cdbc 70e2 c03c
000001b0: 55cd 9bbd a8f7 5fbd aa3c 4bbd a737 103b
000001c0: c925 363d 3384 d23c 2e28 6fbc d517 523d
000001d0: 57b3 d1bd 378d 9b3d 0a51 c9bb 1eb2 0fbc
000001e0: 182b 6fbd 9c53 a13d 4bce 0bbd 5d40 2d3d
000001f0: f90f 8d3c 4e6f 49bd c9a7 0abd a296 c5bd
00000200: 7bbc b83c 28ed c93b 04bc 5bbd a377 b43c
00000210: d5ae 3b3c 90dc 8dbd 245b 64bd 4577 20bd
00000220: f874 2dbd 6ee2 063d 2952 4bbd 298e acbc
00000230: cb3d 28bd 8e0b 47bc dd69 55bd 4786 77bd
00000240: 6339 8bbd e197 84bd 35f5 1ebc e211 5dbd
00000250: 6f82 0bbc 15d4 673d baf7 b73c 76f3 133d
00000260: 15bc 82bd d5da b2bd 33cb acbb c731 0c3d
00000270: f636 bfbc 01a4 03bb e35d 7c3c 9027 003d
00000280: dc61 0bbd 11b4 033a 682f b8bd c58c 353a
00000290: 03f4 25bd 9563 87bd ba48 93bd 2141 e1bc
000002a0: b23a 843d 14bc e5bb 7f30 203c ceab b8bc
000002b0: e42c a9bb c09e a9bd 891e 7abd b0e7 753d
000002c0: d146 a9bc a9ee b3bd 7460 bfbc d4d2 4e3d
000002d0: d854 08bd 51a1 ce3c cff9 7fbc 6e06 22bc
000002e0: ce96 d8bd 4310 2dbd 0091 303d c35d 643d
000002f0: f0ee 333d 7343 93bc 3afe 4abc 3bc9 b03b
00000300: d3a3 56bd 6af6 83bd f3fb 63bd c048 043d
00000310: 8a99 57bd a4f9 23bd 6101 8abd c82b bbbd
00000320: 09ab 4dbd 6d6f 06bd a92f ae3d 4ad0 8e3d
00000330: 4177 7cbd f56e c43c ff50 583d c033 83bd
00000340: ac11 a03d d175 b83d 7dc4 cc3c ee5a cbbc
00000350: 5123 6dbd f7d6 bbbd 1a38 383d 0674 5f3d
00000360: a16a b9bb b983 9ebc a6ac b33c 5f2d 1ebd
00000370: 7396 82bd 504a aabd d094 a93c 83d3 063d
00000380: 4d31 b6bd 0c30 23bd 392d 063d 8c4b c03c
00000390: 094c 6b3d 6aaa 42bd b2c8 523d 2d8a 433d
000003a0: 0940 253c 74fd 443d 6277 0d3d a95a 543d
000003b0: 8534 f3bc a5b8 37bd d798 9abd af23 883d
000003c0: 9a66 8abd d496 ef3c f35c b6bd 99e1 7a3a
000003d0: 3bd5 b4bd d62e 843d 7b3c a23c 5d19 cabd
000003e0: 5383 12bb d376 d5b9 f164 9ebd ec40 fd3c
000003f0: fb22 4d3d 4894 5c3d 6f3d 50bc d40a 953c

fc2.bias f4 [64]
0.016491184 0.046068605 0.051987328 0.29989403 0.01297417 -0.08348281 0.34977898 0.31723905
-0.35759592 -0.02211519 0.36458734 0.026233578 0.293856 0.4993895 0.27640578 0.34238988
-0.3744298 0.33298713 -0.061984684 0.21855924 0.36137477 -0.049993858 0.40953612 0.42288536
-0.38722897 -0.007698871 0.18284424 0.46985337 0.49392638 0.32231277 0.009811883 -0.036652353
-0.05403537 0.35421398 0.29721457 0.35902962 0.09452346 0.14361835 -0.08472632 -0.09665295
0.14946555 0.48758045 0.34058148 0.339403 -0.041778643 -0.03540488 0.38164562 0.46093366
0.17169012 0.3732046 0.26391724 0.22236541 0.46907064 0.43131807 0.43368372 0.49924737
0.13948235 -0.06402004 0.31429672 0.13276222 -0.07835225 0.28016454 0.2672425 0.48006186
00000000: 8518 873c 6fb2 3c3d aaf0 543d b68b 993e
00000010: 9d91 543c 09f9 aabd 3b16 b33e 286d a23e
00000020: d016 b7be ea2a b5bc 31ab ba3e cde7 d63c
00000030: 4b74 963e fbaf ff3e 0f85 8d3e ba4d af3e
00000040: 43b5 bfbe 4a7d aa3e a7e3 7dbd fecd 5f3e
00000050: 1d06 b93e 5cc6 4cbd b8ae d13e 6e84 d83e
00000060: e042 c6be d046 fcbb 853b 3b3e 9f90 f03e
00000070: ebe3 fc3e 2e06 a53e 05c2 203c c720 16bd
00000080: 3154 5dbd 895b b53e 822c 983e bbd2 b73e
00000090: 8495 c13d b010 133e fe84 adbd fbf1 c5bd
000000a0: 7f0d 193e 25a4 f93e b260 ae3e 3bc6 ad3e
000000b0: 1520 2bbd b504 11bd 0e67 c33e 7fff eb3e
000000c0: 89cf 2f3e ac14 bf3e 2920 873e c2b3 633e
000000d0: 072a f03e b9d5 dc3e cb0b de3e 5a9d ff3e
000000e0: 76d4 0e3e f01c 83bd 80eb a03e d2f2 073e
000000f0: 2577 a0bd ba71 8f3e 02d4 883e abca f53e

fc3.weight f4 [32, 64]
0.056892157 -0.05718888 -0.056261007 -0.22602332 -0.021303464 0.12376246 -0.08282996 0.001037871
0.13723539 -0.0047162194 -0.110762365 0.006735011 0.013237929 -0.038218386 0.016629297 -0.19484413
0.16158031 0.03987195 -0.06481006 -0.14135249 -0.02815659 0.0046099713 0.04445508 -0.004363385
0.10351061 -0.13387287 -0.08615733 -0.12815292 0.042749207 -0.20996052 0.04000215 0.014712712
-0.01573708 -0.01289458 -0.22725146 0.06716962 -0.09015089 0.158022 0.083849154 -0.090213105
0.101825684 -0.17304465 -0.08512526 -0.046727046 -0.07661733 -0.114149414 -0.10463875 -0.07265544
-0.14406383 0.0212695 -0.08817503 0.040355016 0.020128423 0.081953056 -0.18970248 -0.03521434
0.057992835 0.016038297 -0.07876406 0.055547956 -0.1231785 -0.14695841 -0.16763647 -0.10768562
-0.023201184 0.07352258 -0.33990398 0.046341617 0.035643604 -0.12877671 0.08295376 -0.0734385
-0.13399084 0.008268709 -0.07026822 -0.14835702 -0.017004116 -0.031320073 0.13811743 0.032509807
-0.2028111 0.16690038 0.122491635 0.046809535 0.16745694 0.008608775 0.1298808 -0.06665144
-0.14831698 0.13464373 0.11492804 0.12631017 0.083404735 0.059910204 0.060797203 -0.019312488
-0.040750988 -0.04748779 -0.0114451675 0.10088807 0.09772213 0.048670553 0.010594492 -0.28661105
-0.119647235 0.12765421 0.16461311 0.15312022 -0.036432236 -0.1444853 0.12832688 -5.3820142e-05
0.10936473 -0.03350569 0.027646516 0.0127624255 0.1887939 0.13675986 0.17289276 -0.0030804726
-0.1839277 -0.05980765 0.1287335 -0.055728815 0.009088273 0.1421587 0.08998722 -0.023915088
-0.10733962 0.0894386 0.041667897 0.08118147 -0.0056932904 -0.070006944 -0.0042260154 0.04680887
-0.105802394 -0.0024739276 -0.06339646 0.027516492 0.07472076 0.021034699 -0.14714023 -0.042391963
0.03690717 0.03984879 0.10758275 0.015288638 -0.039125107 -0.066357486 -0.12722005 -0.038790837
0.054554395 0.04699822 -0.0015516804 0.050445445 -0.114934646 0.060448088 0.05349638 0.08735549
0.052608937 -0.03798361 0.013440016 -0.0046211733 -0.030516837 -0.11502496 -0.06831956 0.087215915
0.0013666183 -0.1015372 -0.09201312 -0.12589031 0.015370728 0.053852174 -0.0003331068 0.019936632
0.08597682 -0.1326857 -0.11587298 -0.051842537 0.11519238 -0.06779612 -0.06688697 -0.13102832
-0.12139621 0.082777046 -0.05036026 -0.016752373 -0.09969823 -0.10783626 0.043256525 -0.11126993
0.106527746 0.08997424 -0.10078381 0.035583165 0.020314965 0.020396259 -0.058656074 -0.06960933
-0.12531781 0.10265191 0.07923521 0.018799566 -0.069283284 -0.054006845 -0.1372667 -0.021052195
0.020323431 -0.0050481833 0.0618793 -0.0032926518 0.009371092 -0.021229848 0.005279797 0.02843445
0.020183548 0.058392398 -0.0973596 0.006827938 0.08585355 -0.1427565 -0.09008155 0.07774294
0.08922283 -0.063259766 0.025873607 0.014545602 0.02486722 0.0300625 -0.03656719 0.004566641
-0.09660566 0.003395379 -0.059188124 -0.13286614 -0.07343889 0.11844821 -0.14321174 -0.12592585
0.0035106428 8.482467e-07 -0.059944734 -0.13424838 -0.019010562 0.08283545 -0.081457175 0.017724758
-0.051437303 0.06196581 0.10448602 -0.08370953 0.092446335 -0.010612826 0.015144767 -0.10188894
00000000: c007 693d e33e 6abd f171 66bd a872 67be
00000010: 9a84 aebc 2c77 fd3d c1a2 a9bd 2c09 883a
00000020: 6f87 0c3e 848a 9abb 61d7 e2bd 5eb1 dc3b
00000030: e6e3 583c e28a 1cbd 2a3a 883c 3885 47be
00000040: 4f75 253e c550 233d 23bb 84bd b5be 10be
00000050: a6a8 e6bc 3e0f 973b 8816 363d bafa 8ebb
00000060: 5ffd d33d f815 09be 4173 b0bd 853a 03be
00000070: cb19 2f3d e4ff 56be 4bd9 233d 960d 713c
00000080: 0ceb 80bc ca43 53bc 9bb4 68be 3a90 893d
00000090: 08a1 b8bd 85d0 213e 1bb9 ab3d a6c1 b8bd
000000a0: fc89 d03d 9e32 31be 2756 aebd dc64 3fbd
000000b0: 8ce9 9cbd 2bc7 e9bd d74c d6bd 60cc 94bd
000000c0: 7885 13be 603d ae3c 1c95 b4bd 4d4b 253d
000000d0: 5de4 a43c 01d7 a73d 5e41 42be e93c 10bd
000000e0: e589 6d3d bf62 833c 0d4f a1bd 4186 633d
000000f0: 0245 fcbd 447c 16be e5a8 2bbe 478a dcbd
00000100: 6910 bebc 0293 963d e507 aebe b5d0 3d3d
00000110: 07ff 113d 0bde 03be a9e3 a93d ed66 96bd
00000120: e534 09be 7b79 073c c9e8 8fbd e7ea 17be
00000130: 374c 8bbc 7a49 00bd a86e 0d3e 0129 053d
00000140: b7ad 4fbe efe7 2a3e e5dc fa3d 5bbb 3f3d
00000150: d579 2b3e d20b 0d3c 79ff 043e 8d80 88bd
00000160: 68e0 17be 0ce0 093e 645f eb3d 7457 013e
00000170: 1ad0 aa3d 6764 753d 7d06 793d 3935 9ebc
00000180: 82ea 26bd 8f82 42bd 8384 3bbc 689e ce3d
00000190: 8a22 c83d c65a 473d 8594 2d3c afbe 92be
000001a0: 9c09 f5bd c9b7 023e 5790 283e 8ccb 1c3e
000001b0: f839 15bd f4f3 13be 1f68 033e f0bc 61b8
000001c0: 9efa df3d 433d 09bd f27a e23c 7e19 513c
000001d0: 3053 413e c70a 0c3e cd0a 313e c1e1 49bb
000001e0: 8b57 3cbe def8 74bd b7d2 033e e643 64bd
000001f0: fbe6 143c 0d92 113e 384b b83d 93e9 c3bc
00000200: e0d4 dbbd 962b b73d f5ab 2a3d 7842 a63d
00000210: c88e babb cd5f 8fbd 637a 8abb a8ba 3f3d
00000220: edae d8bd 9e21 22bb 01d6 81bd 446a e13c
00000230: 3307 993d f650 ac3c eeab 16be 32a3 2dbd
00000240: f92b 173d 7c38 233d 5854 dc3d 327d 7a3c
00000250: a641 20bd 6fe6 87bd f945 02be 24e3 1ebd
00000260: 6e74 5f3d 3581 403d c161 cbba e29f 4e3d
00000270: db62 ebbd 6a98 773d 051f 5b3d 6fe7 b23d
00000280: 787c 573d b494 1bbd 8333 5c3c 366d 97bb
00000290: 72fe f9bc 3592 ebbd 20eb 8bbd 429e b23d
000002a0: 1a20 b33a bcf2 cfbd 6071 bcbd 64e9 00be
000002b0: 82d5 7b3c 1994 5c3d d6a4 aeb9 2652 a33c
000002c0: 9d14 b03d c3de 07be d04e edbd d758 54bd
000002d0: fce9 eb3d b1d8 8abd 09fc 88bd 4a2c 06be
000002e0: 939e f8bd 0387 a93d 8f46 4ebd 463c 89bc
000002f0: 962e ccbd 42d9 dcbd c12d 313d 7de1 e3bd
00000300: 382b da3d 6a44 b83d be67 cebd a7bf 113d
00000310: 926b a63c 0e16 a73c 5a41 70bd 568f 8ebd
00000320: 5053 00be 2a3b d23d 1246 a23d 8c01 9a3c
00000330: 65e4 8dbd 4836 5dbd a48f 0cbe a775 acbc
00000340: 537d a63c 3b6b a5bb 2675 7d3d 88c9 57bb
00000350: 3589 193c 38ea adbc 2602 ad3b 5def e83c
00000360: f857 a53c de2c 6f3d 7864 c7bd e5bc df3b
00000370: fcd3 af3d c32e 12be ad7c b8bd b137 9f3d
00000380: 76ba b63d 568e 81bd e3f4 d33c ad50 6e3c
00000390: 57b6 cb3c a245 f63c 7ac7 15bd c3a3 953b
000003a0: 30d9 c5bd 0285 5e3b 3f6f 72bd 100e 08be
000003b0: 2167 96bd fa94 f23d 19a6 12be b5f2 00be
000003c0: d012 663b 12b3 6335 9c88 75bd 6878 09be
000003d0: 0abc 9bbc a2a5 a93d 05d3 a6bd 8333 913c
000003e0: ecaf 52bd dccf 7d3d c4fc d53d e76f abbd
000003f0: 8154 bd3d 6be1 2dbc c221 783c 26ab d0bd

fc3.bias f4 [32]
0.034069147 0.3991397 0.013736646 0.02278327 0.087709606 -0.047418866 -0.02454339 0.2057653
0.3733094 0.09068111 -0.023019113 -0.1170239 0.41008624 0.3316966 0.47989404 0.30128467
0.058165647 0.30477938 0.16182493 -0.3268585 0.11351426 -0.07905212 0.08844456 -0.0901018
0.021603102 0.42134228 0.27952418 0.20338303 -0.0028730666 0.36259165 -0.12549357 -0.46173146
00000000: 178c 0b3d 0a5c cc3e ab0f 613c fba3 ba3c
00000010: 18a1 b33d 493a 42bd 380f c9bc 24b4 523e
00000020: 6922 bf3e 05b7 b93d 9492 bcbc 3aaa efbd
00000030: d3f6 d13e 23d4 a93e acb4 f53e fc41 9a3e
00000040: 1a3f 6e3d 0b0c 9c3e 6fb5 253e ff59 a7be
00000050: 2a7a e83d 14e6 a1bd 6c22 b53d 4b87 b8bd
00000060: fdf8 b03c 2dba d73e cb1d 8f3e a443 503e
00000070: 0f4a 3cbb 9da5 b93e 6381 00be 1168 ecbe

fc4.weight f4 [1, 32]
0.033169925 0.19251364 -0.016055582 -0.14724869 -0.06818798 -0.007449103 -0.44320604 0.21043609
0.22908384 -0.05790673 0.043963697 0.10862136 0.23590243 0.20821764 0.2251022 0.2891105
-0.14010218 0.12298707 -0.40252948 -0.1433921 -0.04647051 -0.08732018 0.51102775 -0.067865185
-0.39575392 0.16043231 0.2666305 0.8779545 -0.15026207 0.1665199 0.060034785 -0.3659594
00000000: 30dd 073d 4c22 453e ff86 83bc 5cc8 16be
00000010: 24a6 8bbd 9b17 f4bb e7eb e2be 8f7c 573e
00000020: f494 6a3e 9b2f 6dbd 4713 343d e074 de3d
00000030: 6890 713e 0137 553e 3181 663e 4b06 943e
00000040: f276 0fbe a5e0 fb3d 5818 cebe 61d5 12be
00000050: dd57 3ebd ecd4 b2bd b7d2 023f e7fc 8abd
00000060: 42a0 cabe 5e48 243e cb83 883e a0c1 603f
00000070: 4dde 19be 3184 2a3e 09e7 753d 085f bbbe
